config/mnist_brain_component/1/snn/saved_net/parameters/_parameters_dict.pt (torch, 32262 bytes, 1 tensors)

autoname1<net>_connection1<con>:autoname1<net>_layer1<neg><-autoname1<net>_input<nod>:{weight} f4 [10, 784]
000000 9f d8 4e 3d 15 e4 68 3d 95 4b af 3c 2a 2e 46 3c
       0.050499555 0.05685814 0.021398345 0.012095967
000010 a6 c7 a3 3d 0c 17 35 bc 33 fd de bb 65 5e be 3d
       0.07997064 -0.011052858 -0.006805086 0.09295348
000020 7e 94 25 3d f9 c9 5f 3d 0a bd 30 3d a2 e0 25 bd
       0.040424816 0.054635976 0.04314903 -0.04049743
000030 2d b6 3e 3c 1e 6f 6f bd 75 e2 e2 3b 8d 2e 44 bd
       0.011640114 -0.05845558 0.0069239684 -0.047895957
000040 8d 55 65 3d d1 b6 b7 3d 32 50 b1 3a ec 60 00 3d
       0.05598979 0.08970416 0.0013527928 0.031342432
000050 91 a9 66 bd a4 e3 35 3c d7 8d 91 bc 01 af f0 3c
       -0.056314055 0.011101637 -0.01776783 0.029380323
000060 eb 7a 57 3d 46 39 00 bd 1e 4a 93 3d 07 60 bb bb
       0.052607458 -0.03130462 0.07191871 -0.0057182345
000070 58 bb 0c 3d 15 94 d6 bc 5e b9 50 bd be 7a 57 3d
       0.034358352 -0.026193658 -0.05095803 0.05260729
000080 f6 05 d5 bd 18 4d f2 3d a2 4b 1d bd 8f 33 ba 3d
       -0.104015276 0.11831111 -0.038402207 0.09091865
000090 f7 e0 90 3c 65 e3 d1 bb 64 2a 0c 3d ce 37 f1 3c
       0.017685397 -0.0064052814 0.034220114 0.029445555
0000a0 8e 52 81 bd 20 8e 99 bc 3d 68 38 3d bb 09 e8 bb
       -0.06314574 -0.018744528 0.045021284 -0.007081238
0000b0 fa 5a 33 3d d7 0b ae bd cf 68 93 3c 3d 4c 0e bd
       0.043787934 -0.08498352 0.017994313 -0.034740675
0000c0 a7 bb 9d 3c 92 97 40 bc fd 15 18 bd 0d 0b c4 3d
       0.019254519 -0.011754887 -0.037130345 0.0957242
0000d0 d6 5d 5f bd 88 f0 b8 3c c7 e9 a3 3d f2 77 a3 bb
       -0.05453285 0.022575632 0.08003574 -0.004988664
0000e0 5d 47 66 3d 89 c1 d9 3d a5 b3 8a 3d ec cc 7b 3c
       0.0562204 0.10632617 0.06772546 0.015368681
0000f0 26 5c 99 3d 3c 2a 6f bd 03 3d 6e bd 63 1d 88 3d
       0.07488279 -0.058389887 -0.058163654 0.0664623
000100 b3 98 16 3d 2f 7c d2 bd 5f 19 bb bd 7d dc 17 3b
       0.03676672 -0.102775924 -0.091356985 0.0023172193
000110 48 14 0f bd 18 1f 05 3c 1d 9c a7 bc dc 68 12 bc
       -0.03493145 0.008125089 -0.020460183 -0.008936133
000120 a1 3e a9 bd 3c 56 d1 3d 99 e7 02 3d 3d 9e 5f 3d
       -0.08263899 0.10221526 0.03195915 0.054594267
000130 34 a7 7b 3d f3 5c 33 bd 33 2c 28 3d 2a 35 03 3d
       0.061438754 -0.043789815 0.041057777 0.032033123
000140 54 02 54 3c 65 f6 0c bc e3 86 91 3c d6 f3 87 bc
       0.012940008 -0.008603667 0.017764514 -0.016595762
000150 c4 c8 fe 3c c0 58 9c 3c 8a 58 2d bc 18 58 d6 3c
       0.031101592 0.019085288 -0.010580191 0.026165053
000160 a7 1d d3 3b c4 23 22 3d 1e a5 81 bc 78 c2 1b bd
       0.006442744 0.03958489 -0.015825804 -0.038027257
000170 ba 11 14 3b 6b b3 27 3c 64 60 e4 bc fb f1 c8 bc
       0.0022593574 0.010235648 -0.027877994 -0.024529448
000180 be 9b d5 3d c9 05 f2 3c 60 29 ae bc ee 57 2d bc
       0.10430096 0.029543774 -0.021259964 -0.010580046
000190 30 c5 9b bd 66 04 3e 3c 54 ca 59 3d 0a c2 98 3c
       -0.0760597 0.011597728 0.05317147 0.018647213
0001a0 ff 51 92 bc ef 62 15 bd 7f 83 a3 3b 1c c0 f7 3c
       -0.017861364 -0.036471304 0.004990041 0.030242972
0001b0 b3 98 b4 3c 07 7d 96 bd f1 7e 47 bd e4 95 eb bc
       0.022045469 -0.07348066 -0.048705045 -0.028757997
0001c0 5d c3 2c 3d d1 75 6d bd 05 d3 44 bc 53 21 5b bd
       0.0421785 -0.057973687 -0.012013202 -0.053498577
0001d0 01 29 4c bd ad 39 c5 3c c3 cd 8c bd 93 c4 5f 3c
       -0.049843792 0.024075354 -0.068751834 0.013657707
0001e0 b9 c5 72 3c 38 fd 58 bd 41 f5 7d bc 04 6f 8d 3c
       0.014817649 -0.052975863 -0.015500368 0.01726485
0001f0 b9 42 75 bd 69 2f 90 bb aa 95 d4 3d c7 08 cc bd
       -0.059878085 -0.004400183 0.10380109 -0.09962612
000200 de 31 89 3d 2d b3 8a bc 33 02 29 bd ff 1c a0 3a
       0.066989645 -0.01693114 -0.041261863 0.0012215673
000210 8c 48 ea 3b 11 73 6c 3c 5d 7c b0 3c b1 f3 86 bc
       0.0071497615 0.014431731 0.021543676 -0.016473623
000220 df ee 7e bd b2 45 a2 3d 2a bc d1 3c c7 9f fd bc
       -0.062239524 0.079234496 0.025602419 -0.030959977
000230 e8 72 e8 3a 78 39 e2 39 a0 05 a7 3d a1 89 c3 bc
       0.001773444 0.00043148897 0.0815537 -0.023869338
000240 bf 0e 3e 3d 48 42 f7 3b 7f 4d 35 bd 71 66 a8 3d
       0.04640078 0.007545743 -0.04426336 0.08222664
000250 c5 8a c4 3c 08 63 f7 ba 87 97 7a bc fe 17 08 3c
       0.023991952 -0.0018874118 -0.015294916 0.008306501
000260 3b b4 85 bd 87 99 6c bd 52 4b 06 3c ac b0 d2 3b
       -0.06528517 -0.057763603 0.008196669 0.0064297523
000270 02 35 36 3d 06 6c 8c 3d bd 90 b6 ba fc ee 8b 3c
       0.044484146 0.06856541 -0.0013928633 0.01708173
000280 f6 ca 60 3d fb 74 60 3a fa e4 9e bd 3d 27 cc 3c
       0.05488106 0.00085623533 -0.077585176 0.024921054
000290 d1 e9 83 bc 9b 11 7f 3d b6 78 b7 3d a7 34 aa 3c
       -0.016102703 0.06227265 0.08958571 0.02077706
0002a0 7f 38 89 3d 1e 97 05 3d 2f e2 8d bd ce dc 6e bd
       0.06700229 0.03261482 -0.06927907 -0.058316045
0002b0 22 b0 67 3d ed a0 a3 3c 6d 6b b9 bc 0a e1 ea 3c
       0.056564458 0.019974196 -0.022634232 0.02867176
0002c0 5f 65 12 3d 3a 39 03 3d 93 99 95 3d aa ff ae bb
       0.035741206 0.032036997 0.073046826 -0.005340536
0002d0 8d bf 83 3c 8a f2 ec 3d fc cc e4 bb 4e 81 86 bc
       0.01608255 0.11569698 -0.006982444 -0.01641908
0002e0 b9 2f a1 3a 33 87 14 3c 15 d4 9e bd 3a 49 bd 3d
       0.0012297548 0.009065437 -0.07755295 0.092424825
0002f0 8a 61 80 bd ec 7f 68 3d ca ef 01 bd da 8e cf bc
       -0.06268604 0.05676262 -0.03172282 -0.025336672
000300 4e 43 7a 3c e5 a6 c5 3b a8 6d 81 bd a5 ee 4b bc
       0.015274836 0.0060318583 -0.063197434 -0.012447034
000310 11 b7 50 3d de 32 66 bd 7f ac b6 3d e1 00 b4 bd
       0.050955836 -0.056200854 0.0891962 -0.0878923
000320 ca 45 12 bd 48 55 16 3e c6 89 e2 3b 96 c4 49 3d
       -0.035711087 0.1468097 0.0069133965 0.049259745
000330 57 cb 08 bd 61 15 86 bb 52 7f 37 3c 62 3c 8d 3d
       -0.033397045 -0.004091904 0.011199789 0.06896283
000340 01 77 10 bd 21 4a 93 3c 90 f5 60 bc a1 08 84 bd
       -0.03526974 0.017979683 -0.013730422 -0.06446958
000350 8a ca 05 bd 2d 4e 37 bd 74 92 83 bd 8f 4a 1e bd
       -0.03266386 -0.04475229 -0.06424418 -0.038645323
000360 88 da 75 bd 50 15 8b 3d 94 a9 c5 bd 64 8d 80 3b
       -0.06002286 0.067911744 -0.09651485 0.003923105
000370 08 44 8e bd 6a eb c6 3c 9b ba 86 bd dd b7 42 3c
       -0.0694657 0.024282176 -0.06578561 0.011884657
000380 bd 5a 4d 3d 9b 75 a1 bc 1a 61 9d 3c e3 d4 35 3d
       0.050135363 -0.019709399 0.01921134 0.044392478
000390 77 ea f7 3c e7 3f e2 bc cb f2 24 bc cc 57 20 3d
       0.030263169 -0.027618362 -0.010067652 0.03914623
0003a0 cd 38 fb 3c 8b f9 15 3d 18 d4 15 bd 8d ed d8 bb
       0.030666733 0.036614936 -0.03657922 -0.006620115
0003b0 a7 8e 2f bc d6 e4 33 bd 2d cc 37 3c 86 03 57 3d
       -0.010715163 -0.043919407 0.011218113 0.052493595
0003c0 81 b9 1d bd c1 b6 9d 3c 5e 3f c7 3d 58 62 98 3d
       -0.03850699 0.019252183 0.09728883 0.074406326
0003d0 65 ed b2 3c 10 ae 6d bd bc 06 22 3c 2e d8 2f bd
       0.021841714 -0.058027327 0.009889301 -0.042930774
0003e0 18 57 aa bd ae eb 5d bc 90 e2 9f bd b8 83 25 bd
       -0.08317393 -0.01354496 -0.07806885 -0.04040882
0003f0 7a a6 50 bc 5d be e2 bc 67 59 ea 3b 1b 96 6e bd
       -0.012735004 -0.027678663 0.007151771 -0.05824862
