config/mnist_brain_component/0/snn/saved_net/parameters/_parameters_dict.pt (torch, 32262 bytes, 1 tensors)

autoname1<net>_connection1<con>:autoname1<net>_layer1<neg><-autoname1<net>_input<nod>:{weight} f4 [10, 784]
-0.060006842 -0.028284676 0.053480987 0.012867784 0.027329044 0.039281454 -0.017933294 0.08823517
-0.045078937 0.0076776925 -0.025973562 0.046196967 -0.013572151 0.011867547 0.028085176 -0.06339126
-0.04643095 -0.07931462 -0.002410958 0.05401847 0.02038306 -0.016898165 -0.045049686 -0.11131485
0.04668316 0.0038287484 0.08783063 0.08531997 -0.030529274 0.048346866 0.054420713 0.03590223
0.09271785 0.03918442 0.042297874 -0.06228889 0.008037254 0.122567415 -0.04123663 -0.012791021
-0.014248591 -0.0037453943 -0.037136752 0.059912313 0.0034426064 0.014734326 -0.11478329 0.093939744
-0.0022163864 -0.011057522 0.084808834 -0.029496506 -0.061657194 0.118183166 0.078198835 0.015579307
-0.03070464 0.11034181 -0.0813721 -0.07581489 0.013798442 -0.04953596 -0.008860581 -0.16240475
0.022831371 0.003997721 0.002566541 0.057529427 0.018494762 -0.007925656 -0.04442093 2.124533e-05
0.08902115 0.010882647 -0.09385333 0.052609663 -0.048293017 -0.018674694 0.029765414 0.07785055
0.00281663 0.023352526 0.03397517 0.015889343 -0.016797403 0.096636415 -0.08107036 0.049509555
0.014016184 -0.033506576 -0.05811919 0.040023267 -0.00464663 -0.017078767 -0.042898007 -0.0034593907
0.045923777 0.059669018 -0.015674982 0.11687102 0.021368321 0.007155859 -0.088554 0.0109979315
0.007286897 -0.029739937 -0.015939075 -0.0125460895 0.06278196 -0.021346428 -0.026723394 -0.024512913
0.00071446673 -0.053270426 0.02960934 0.06559677 0.06221462 -0.0753623 0.020933941 -0.051330548
0.03948216 0.04383087 0.0025842572 -0.08440292 0.03304851 -0.025505345 0.028714903 -0.12219816
0.009418677 0.015157061 0.027707852 0.029671527 -0.09066458 -0.10924945 0.046715494 0.04295796
0.09451084 -0.043693703 -0.025505826 -0.01242113 0.09016043 0.03930649 -0.016933167 -0.010263322
0.09909639 0.07003849 -0.01781544 0.03255444 0.069239676 -0.051406868 -0.00052515324 0.12827106
0.006189354 0.07185511 -0.094269395 0.07425826 0.052818745 -0.045226403 -0.001469072 0.026909502
0.029568598 -0.06952327 0.042579476 0.043331273 -0.081180006 -0.054272953 0.038388066 0.042868026
-0.027946359 -0.014168772 0.009942965 -0.019365622 -0.08771724 -0.012073528 -0.051864207 -0.14513983
-0.05292658 0.009352372 -0.0062535787 -0.016904261 -0.026004255 -0.06582276 0.088240445 0.014236642
0.06892556 0.022156995 0.008982888 0.07758477 -0.063538566 -0.052123487 0.000893021 0.056787666
-0.11282872 -0.035144255 0.07075305 0.0021096738 0.010872435 -0.016218543 -0.02465111 -0.023683893
0.054548226 -0.042101912 -0.063323095 0.07824179 0.07040114 -0.0024313321 0.048463397 -0.04358774
0.018032663 -0.026279755 0.1234209 0.056030713 0.022423688 0.07319726 0.020741705 0.060221743
0.01329827 0.0063386457 -0.0059701055 0.04644438 0.027215138 0.021227896 -0.02745783 0.033482656
0.061989233 0.00011905204 0.07684511 0.05275374 0.03212007 -0.05377101 0.045177817 0.007666518
0.0687165 0.04817383 -0.0002746908 -0.09271111 -0.0016700951 0.08890875 -0.011836355 -0.016638067
-0.003201127 0.0674015 0.08810664 -0.01704549 -0.052072965 -0.081669725 -0.026073147 0.14690982
-0.066095136 -0.037792712 0.0024403736 0.041838672 -0.042915344 0.006010091 -0.041261997 -0.066441655
00000000: bcc9 75bd 44b5 e7bc e10e 5b3d 66d3 523c
00000010: 29e1 df3c 97e5 203d d8e8 92bc a4b4 b43d
00000020: b1a4 38bd 2795 fb3b 82c6 d4bc 0839 3d3d
00000030: ba5d 5ebc 1a70 423c e212 e63c 47d3 81bd
00000040: 612e 3ebd b46f a2bd 2a01 1ebb 7942 5d3d
00000050: 60fa a63c 056e 8abc 0586 38bd 0af9 e3bd
00000060: d736 3f3d bdeb 7a3b 8ce0 b33d 3dbc ae3d
00000070: 8718 fabc 5d07 463d 41e8 5e3d 370e 133d
00000080: dbe2 bd3d d87f 203d 8940 2d3d a322 7fbd
00000090: b0ae 033c a004 fb3d bee7 28bd 6e91 51bc
000000a0: ec72 69bc 4a75 75bb b51c 18bd 9d66 753d
000000b0: 5a9d 613b 3e68 713c 8013 ebbd 7b63 c03d
000000c0: cb40 11bb 9c2a 35bc 41b0 ad3d a8a2 f1bc
000000d0: 418c 7cbd 040a f23d b626 a03d 5a40 7f3c
000000e0: 4c88 fbbc e3fa e13d 6aa6 a6bd d644 9bbd
000000f0: dc12 623c 38e6 4abd f82b 11bc 6e4d 26be
00000100: db08 bb3c 50ff 823b 6a33 283b faa3 6b3d
00000110: 5482 973c 9cda 01bc b9f2 35bd 0038 b237
00000120: b850 b63d 214d 323c 2d36 c0bd 3b7d 573d
00000130: e6ce 45bd acfb 98bc 99d6 f33c 1c70 9f3d
00000140: 3697 383b cc4d bf3c 8c29 0b3d 5e2a 823c
00000150: b59a 89bc 50e9 c53d 3808 a6bd 88ca 4a3d
00000160: 23a4 653c 313e 09bd 630e 6ebd 70ef 233d
00000170: c242 98bb c5e8 8bbc d2b5 2fbd f2b6 62bb
00000180: 921a 3c3d 8067 743d d268 80bc 135a ef3d
00000190: 9e0c af3c b27b ea3b cd5b b5bd ab30 343c
000001a0: ecc6 ee3b 2ba1 f3bc aa92 82bc 1d8e 4dbc
000001b0: d493 803d b4de aebc 05eb dabc 4ecf c8bc
000001c0: 0d4b 3b3a 1732 5abd 498f f23c 9957 863d
000001d0: c2d4 7e3d 8d57 9abd a87d ab3c fb3f 52bd
000001e0: 0cb8 213d 0088 333d a45c 293b 70db acbd
000001f0: e05d 073d 96f0 d0bc 843b eb3c 0743 fabd
00000200: cb50 1a3c 5255 783c 94fb e23c b411 f33c
00000210: 5aae b9bd 2dbe dfbd bf58 3f3d b0f4 2f3d
00000220: e68e c13d 2bf8 32bd 98f1 d0bc ff81 4bbc
00000230: 08a6 b83d d8ff 203d 6db7 8abc 7e27 28bc
00000240: 0cf3 ca3d 5770 8f3d b0f1 91bc ce57 053d
00000250: 88cd 8d3d 0290 52bd 70aa 09ba 7d59 033e
00000260: 11d0 ca3b c628 933d 5010 c1bd b714 983d
00000270: 7858 583d 523f 39bd e08d c0ba 5171 dc3c
00000280: d839 f23c 3762 8ebd d167 2e3d 227c 313d
00000290: b441 a6bd 514d 5ebd ce3c 1d3d 6296 2f3d
000002a0: c3ef e4bc 2324 68bc d1e7 223c a7a4 9ebc
000002b0: 19a5 b3bd 0cd0 45bc 906f 54bd 899f 14be
000002c0: 8bc9 58bd b13a 193c d2ea ccbb ce7a 8abc
000002d0: e006 d5bc 15ce 86bd 68b7 b43d ce40 693c
000002e0: d828 8d3d 9682 b53c f72c 133c c4e4 9e3d
000002f0: 8220 82bd 707f 55bd a019 6a3a 2f9a 683d
00000300: be12 e7bd 6cf3 0fbd fae6 903d 7442 0a3b
00000310: 4c22 323c c0dc 84bc 20f1 c9bc b904 c2bc
00000320: f66d 5f3d 0e73 2cbd 8aaf 81bd 3b3d a03d
00000330: 792e 903d fc56 1fbb 8e81 463d 0f89 32bd
00000340: 3cb9 933c a448 d7bc 19c4 fc3d 7680 653d
00000350: e2b1 b73c 72e8 953d 82ea a93c 13ab 763d
00000360: fde0 593c 6ab4 cf3b e0a0 c3bb 763c 3e3d
00000370: 48f2 de3c 20e6 ad3c 3eef e0bc 1c25 093d
00000380: 6ce8 7d3d 94ab f938 f860 9d3d 4e14 583d
00000390: 5690 033d fe3e 5cbd 600c 393d 6a37 fb3b
000003a0: 3dbb 8c3d ec51 453d 6004 90b9 53df bdbd
000003b0: 18e7 daba ca15 b63d 45ed 41bc 8e4c 88bc
000003c0: 00ca 51bb cc09 8a3d 4171 b43d fca2 8bbc
000003d0: 764a 55bd 7542 a7bd 5a97 d5bc 876f 163e
000003e0: e35c 87bd 88cc 1abd adee 1f3b 075f 2b3d
000003f0: 00c8 2fbd 4cf0 c43b 5702 29bd 9012 88bd
